{"keras_version": "1.1.1", "config": [{"config": {"input_dtype": "float32", "function_type": "lambda", "batch_input_shape": [null, 64, 64, 3], "function": ["\u00e3\u0001\u0000\u0000\u0000\u0000\u0000\u0000\u0000\u0001\u0000\u0000\u0000\u0002\u0000\u0000\u0000C\u0000\u0000\u0000s\f\u0000\u0000\u0000|\u0000\u0000d\u0001\u0000\u001bd\u0002\u0000\u0018S)\u0003Ng\u0000\u0000\u0000\u0000\u0000\u00e0_@g\u0000\u0000\u0000\u0000\u0000\u0000\u00e0?\u00a9\u0000)\u0001\u00da\u0001xr\u0001\u0000\u0000\u0000r\u0001\u0000\u0000\u0000\u00fa\u001f<ipython-input-12-06976c33b88e>\u00da\b<lambda>\t\u0000\u0000\u0000s\u0000\u0000\u0000\u0000", null, null], "output_shape": [64, 64, 3], "name": "lambda_3", "arguments": {}, "trainable": true, "output_shape_type": "raw"}, "class_name": "Lambda"}, {"config": {"init": "glorot_uniform", "nb_col": 1, "nb_filter": 3, "b_constraint": null, "name": "color_conv", "subsample": [1, 1], "nb_row": 1, "border_mode": "same", "bias": true, "trainable": true, "b_regularizer": null, "dim_ordering": "tf", "W_regularizer": null, "activation": "linear", "activity_regularizer": null, "W_constraint": null}, "class_name": "Convolution2D"}, {"config": {"init": "glorot_uniform", "nb_col": 3, "nb_filter": 64, "b_constraint": null, "name": "block1_conv1", "subsample": [1, 1], "nb_row": 3, "border_mode": "same", "bias": true, "trainable": true, "b_regularizer": null, "dim_ordering": "tf", "W_regularizer": null, "activation": "elu", "activity_regularizer": null, "W_constraint": null}, "class_name": "Convolution2D"}, {"config": {"init": "glorot_uniform", "nb_col": 3, "nb_filter": 64, "b_constraint": null, "name": "block1_conv2", "subsample": [1, 1], "nb_row": 3, "border_mode": "same", "bias": true, "trainable": true, "b_regularizer": null, "dim_ordering": "tf", "W_regularizer": null, "activation": "elu", "activity_regularizer": null, "W_constraint": null}, "class_name": "Convolution2D"}, {"config": {"dim_ordering": "tf", "strides": [2, 2], "name": "block1_pool", "border_mode": "valid", "trainable": true, "pool_size": [2, 2]}, "class_name": "MaxPooling2D"}, {"config": {"init": "glorot_uniform", "nb_col": 3, "nb_filter": 128, "b_constraint": null, "name": "block2_conv1", "subsample": [1, 1], "nb_row": 3, "border_mode": "same", "bias": true, "trainable": true, "b_regularizer": null, "dim_ordering": "tf", "W_regularizer": null, "activation": "elu", "activity_regularizer": null, "W_constraint": null}, "class_name": "Convolution2D"}, {"config": {"init": "glorot_uniform", "nb_col": 3, "nb_filter": 128, "b_constraint": null, "name": "block2_conv2", "subsample": [1, 1], "nb_row": 3, "border_mode": "same", "bias": true, "trainable": true, "b_regularizer": null, "dim_ordering": "tf", "W_regularizer": null, "activation": "elu", "activity_regularizer": null, "W_constraint": null}, "class_name": "Convolution2D"}, {"config": {"dim_ordering": "tf", "strides": [2, 2], "name": "block2_pool", "border_mode": "valid", "trainable": true, "pool_size": [2, 2]}, "class_name": "MaxPooling2D"}, {"config": {"init": "glorot_uniform", "nb_col": 3, "nb_filter": 256, "b_constraint": null, "name": "block3_conv1", "subsample": [1, 1], "nb_row": 3, "border_mode": "same", "bias": true, "trainable": true, "b_regularizer": null, "dim_ordering": "tf", "W_regularizer": null, "activation": "elu", "activity_regularizer": null, "W_constraint": null}, "class_name": "Convolution2D"}, {"config": {"init": "glorot_uniform", "nb_col": 3, "nb_filter": 256, "b_constraint": null, "name": "block3_conv2", "subsample": [1, 1], "nb_row": 3, "border_mode": "same", "bias": true, "trainable": true, "b_regularizer": null, "dim_ordering": "tf", "W_regularizer": null, "activation": "elu", "activity_regularizer": null, "W_constraint": null}, "class_name": "Convolution2D"}, {"config": {"init": "glorot_uniform", "nb_col": 3, "nb_filter": 256, "b_constraint": null, "name": "block3_conv3", "subsample": [1, 1], "nb_row": 3, "border_mode": "same", "bias": true, "trainable": true, "b_regularizer": null, "dim_ordering": "tf", "W_regularizer": null, "activation": "elu", "activity_regularizer": null, "W_constraint": null}, "class_name": "Convolution2D"}, {"config": {"dim_ordering": "tf", "strides": [2, 2], "name": "block3_pool", "border_mode": "valid", "trainable": true, "pool_size": [2, 2]}, "class_name": "MaxPooling2D"}, {"config": {"init": "glorot_uniform", "nb_col": 3, "nb_filter": 512, "b_constraint": null, "name": "block4_conv1", "subsample": [1, 1], "nb_row": 3, "border_mode": "same", "bias": true, "trainable": true, "b_regularizer": null, "dim_ordering": "tf", "W_regularizer": null, "activation": "elu", "activity_regularizer": null, "W_constraint": null}, "class_name": "Convolution2D"}, {"config": {"init": "glorot_uniform", "nb_col": 3, "nb_filter": 512, "b_constraint": null, "name": "block4_conv2", "subsample": [1, 1], "nb_row": 3, "border_mode": "same", "bias": true, "trainable": true, "b_regularizer": null, "dim_ordering": "tf", "W_regularizer": null, "activation": "elu", "activity_regularizer": null, "W_constraint": null}, "class_name": "Convolution2D"}, {"config": {"init": "glorot_uniform", "nb_col": 3, "nb_filter": 512, "b_constraint": null, "name": "block4_conv3", "subsample": [1, 1], "nb_row": 3, "border_mode": "same", "bias": true, "trainable": true, "b_regularizer": null, "dim_ordering": "tf", "W_regularizer": null, "activation": "elu", "activity_regularizer": null, "W_constraint": null}, "class_name": "Convolution2D"}, {"config": {"dim_ordering": "tf", "strides": [2, 2], "name": "block4_pool", "border_mode": "valid", "trainable": true, "pool_size": [2, 2]}, "class_name": "MaxPooling2D"}, {"config": {"init": "glorot_uniform", "nb_col": 3, "nb_filter": 512, "b_constraint": null, "name": "block5_conv1", "subsample": [1, 1], "nb_row": 3, "border_mode": "same", "bias": true, "trainable": true, "b_regularizer": null, "dim_ordering": "tf", "W_regularizer": null, "activation": "elu", "activity_regularizer": null, "W_constraint": null}, "class_name": "Convolution2D"}, {"config": {"init": "glorot_uniform", "nb_col": 3, "nb_filter": 512, "b_constraint": null, "name": "block5_conv2", "subsample": [1, 1], "nb_row": 3, "border_mode": "same", "bias": true, "trainable": true, "b_regularizer": null, "dim_ordering": "tf", "W_regularizer": null, "activation": "elu", "activity_regularizer": null, "W_constraint": null}, "class_name": "Convolution2D"}, {"config": {"init": "glorot_uniform", "nb_col": 3, "nb_filter": 512, "b_constraint": null, "name": "block5_conv3", "subsample": [1, 1], "nb_row": 3, "border_mode": "same", "bias": true, "trainable": true, "b_regularizer": null, "dim_ordering": "tf", "W_regularizer": null, "activation": "elu", "activity_regularizer": null, "W_constraint": null}, "class_name": "Convolution2D"}, {"config": {"dim_ordering": "tf", "strides": [2, 2], "name": "block5_pool", "border_mode": "valid", "trainable": true, "pool_size": [2, 2]}, "class_name": "MaxPooling2D"}, {"config": {"trainable": true, "name": "Flatten"}, "class_name": "Flatten"}, {"config": {"b_regularizer": null, "init": "glorot_uniform", "b_constraint": null, "name": "fc1", "W_constraint": null, "trainable": true, "bias": true, "input_dim": null, "W_regularizer": null, "output_dim": 512, "activation": "elu", "activity_regularizer": null}, "class_name": "Dense"}, {"config": {"p": 0.5, "trainable": true, "name": "fc1_dropout"}, "class_name": "Dropout"}, {"config": {"b_regularizer": null, "init": "glorot_uniform", "b_constraint": null, "name": "fc2", "W_constraint": null, "trainable": true, "bias": true, "input_dim": null, "W_regularizer": null, "output_dim": 256, "activation": "elu", "activity_regularizer": null}, "class_name": "Dense"}, {"config": {"p": 0.3, "trainable": true, "name": "fc2_dropout"}, "class_name": "Dropout"}, {"config": {"b_regularizer": null, "init": "glorot_uniform", "b_constraint": null, "name": "fc3", "W_constraint": null, "trainable": true, "bias": true, "input_dim": null, "W_regularizer": null, "output_dim": 64, "activation": "elu", "activity_regularizer": null}, "class_name": "Dense"}, {"config": {"p": 0.1, "trainable": true, "name": "fc3_dropout"}, "class_name": "Dropout"}, {"config": {"b_regularizer": null, "init": "zero", "b_constraint": null, "name": "output", "W_constraint": null, "trainable": true, "bias": true, "input_dim": null, "W_regularizer": null, "output_dim": 1, "activation": "linear", "activity_regularizer": null}, "class_name": "Dense"}], "class_name": "Sequential"}